…
Corresponding meanings: ['Eight', 'Flower', 'Insect', 'Inside', 'King', 'Leg', 'Living', 'Power', 'Seven', 'Two']

Using TensorFlow backend.
WARNING:tensorflow:From /usr/local/lib/python3.7/site-packages/tensorflow/python/framework/op_def_library.py:263: colocate_with (from tensorflow.python.framework.ops) is deprecated and will be removed in a future version.
Instructions for updating:
Colocations handled automatically by placer.
_________________________________________________________________
Layer (type)                 Output Shape              Param #
=================================================================
input_1 (InputLayer)         (None, 100, 100, 1)       0
_________________________________________________________________
conv2d_1 (Conv2D)            (None, 100, 100, 16)      160
_________________________________________________________________
max_pooling2d_1 (MaxPooling2 (None, 50, 50, 16)        0
_________________________________________________________________
conv2d_2 (Conv2D)            (None, 50, 50, 8)         1160
_________________________________________________________________
max_pooling2d_2 (MaxPooling2 (None, 25, 25, 8)         0
_________________________________________________________________
conv2d_3 (Conv2D)            (None, 25, 25, 8)         584
_________________________________________________________________
max_pooling2d_3 (MaxPooling2 (None, 13, 13, 8)         0
_________________________________________________________________
conv2d_4 (Conv2D)            (None, 13, 13, 8)         584
_________________________________________________________________
up_sampling2d_1 (UpSampling2 (None, 26, 26, 8)         0
_________________________________________________________________
conv2d_5 (Conv2D)            (None, 26, 26, 8)         584
_________________________________________________________________
up_sampling2d_2 (UpSampling2 (None, 52, 52, 8)         0
_________________________________________________________________
conv2d_6 (Conv2D)            (None, 50, 50, 16)        1168
_________________________________________________________________
up_sampling2d_3 (UpSampling2 (None, 100, 100, 16)      0
_________________________________________________________________
conv2d_7 (Conv2D)            (None, 100, 100, 1)       145
=================================================================
Total params: 4,385
Trainable params: 4,385
Non-trainable params: 0
_________________________________________________________________
_________________________________________________________________
Layer (type)                 Output Shape              Param #
=================================================================
input_1 (InputLayer)         (None, 100, 100, 1)       0
_________________________________________________________________
conv2d_1 (Conv2D)            (None, 100, 100, 16)      160
_________________________________________________________________
max_pooling2d_1 (MaxPooling2 (None, 50, 50, 16)        0
_________________________________________________________________
conv2d_2 (Conv2D)            (None, 50, 50, 8)         1160
_________________________________________________________________
max_pooling2d_2 (MaxPooling2 (None, 25, 25, 8)         0
_________________________________________________________________
conv2d_3 (Conv2D)            (None, 25, 25, 8)         584
_________________________________________________________________
max_pooling2d_3 (MaxPooling2 (None, 13, 13, 8)         0
=================================================================
Total params: 1,904
Trainable params: 1,904
Non-trainable params: 0
_________________________________________________________________
_________________________________________________________________
Layer (type)                 Output Shape              Param #
=================================================================
input_2 (InputLayer)         (None, 13, 13, 8)         0
_________________________________________________________________
conv2d_4 (Conv2D)            (None, 13, 13, 8)         584
_________________________________________________________________
up_sampling2d_1 (UpSampling2 (None, 26, 26, 8)         0
_________________________________________________________________
conv2d_5 (Conv2D)            (None, 26, 26, 8)         584
_________________________________________________________________
up_sampling2d_2 (UpSampling2 (None, 52, 52, 8)         0
_________________________________________________________________
conv2d_6 (Conv2D)            (None, 50, 50, 16)        1168
_________________________________________________________________
up_sampling2d_3 (UpSampling2 (None, 100, 100, 16)      0
_________________________________________________________________
conv2d_7 (Conv2D)            (None, 100, 100, 1)       145
=================================================================
Total params: 2,481
Trainable params: 2,481
Non-trainable params: 0
_________________________________________________________________
WARNING:tensorflow:From /usr/local/lib/python3.7/site-packages/tensorflow/python/ops/math_ops.py:3066: to_int32 (from tensorflow.python.ops.math_ops) is deprecated and will be removed in a future version.
…
